model_param.pkl (torch, 96735 bytes, 4 tensors)

i2h.weight f4 [128, 160]
000000 c7 b8 a6 bc 71 51 5a bd 5c e3 81 3d ad 93 df 3a
       -0.02035178 -0.053300325 0.063421935 0.0017057561
000010 b9 69 5d bc 7b 5f a0 3d 1d c3 30 3d 5a 37 e2 bb
       -0.013513976 0.078307115 0.043154825 -0.006903571
000020 ab 26 87 3d 03 8a 87 3d d7 ce 47 3d c0 08 c1 3c
       0.06599172 0.066181205 0.048781242 0.023563743
000030 1a 5c 76 bd 02 f5 73 bd 2c 87 bb bc cd ef 8f 3b
       -0.06014643 -0.05955983 -0.022891603 0.0043926
000040 aa 00 af bd 96 bb 28 bd 37 3a 68 bb d9 37 7e bd
       -0.085450485 -0.04119452 -0.003543509 -0.06206498
000050 fa 29 37 3d c4 ed 6f 3b 47 18 65 3d d7 b2 89 bd
       0.044717766 0.0036610225 0.055931356 -0.06723564
000060 0c db 75 bd 88 91 2e bc 39 45 8e 3b 68 9f 68 3d
       -0.060023353 -0.010654815 0.004341748 0.056792647
000070 24 9f a4 bb c4 d8 56 bd a0 8f ce bc d1 f9 26 bd
       -0.005023854 -0.052452818 -0.02521497 -0.040765587
000080 62 39 70 bd a2 c3 d9 39 12 69 a5 3d c5 08 e6 3c
       -0.058648475 0.00041535223 0.08076681 0.028080354
000090 54 45 8c 3c 84 8c 93 3c 47 b5 1c bc be 14 d8 ba
       0.017122902 0.018011339 -0.009564704 -0.0016485674
0000a0 af 7f 71 bd 51 4a 29 3d c6 06 81 3d 63 22 4b 3b
       -0.05895966 0.04133064 0.0630012 0.0030995838
0000b0 25 4b a1 3c 9b 20 24 bd a0 e1 a4 bd 3e a5 d3 bc
       0.019689152 -0.040070157 -0.08050847 -0.02583563
0000c0 4b 4f 03 bd ee 53 14 3d 2e 46 38 bb 98 94 46 3d
       -0.03205804 0.036212854 -0.0028118002 0.048481554
0000d0 bc 31 f2 bc d2 c7 0a bc 3e 56 96 3d ed c0 63 3d
       -0.02956473 -0.008470492 0.07340668 0.05560391
0000e0 08 c3 7e 3d 93 18 98 3d 71 a0 72 3d dc 89 6f bd
       0.062197715 0.07426562 0.05923504 -0.058481082
0000f0 e9 4a 14 3d 52 bd 9d bc e1 d2 8a bd 95 c5 0a 3d
       0.036204252 -0.019255314 -0.06778503 0.033879835
000100 fc eb 26 3d b3 1d 7b 3d 7a 5f 8f 3c b3 d4 58 bd
       0.040752396 0.06130762 0.017501581 -0.05293722
000110 c3 a5 90 3c 27 22 c8 3b 1e e2 3c 3d 5d 46 6e bc
       0.017657166 0.006107587 0.04611408 -0.014543143
000120 03 45 2a bd 58 51 a3 3c d2 9a 30 3c 41 7b 91 bd
       -0.04156972 0.019936249 0.0107791 -0.07103587
000130 fe 04 d6 3c ad 8e 1f bd 57 bf 5f 3c 8a cb 6a 3d
       0.026125427 -0.038954426 0.013656459 0.057323016
000140 e7 ba 65 bc ed 50 66 bd f5 24 2a 3d f8 7c 88 bc
       -0.014021612 -0.05622952 0.04153915 -0.016661152
000150 6b 14 bc 3c 0b 8c f7 3c 13 8c 76 3d 9c b1 44 3b
       0.022958955 0.030218145 0.06019218 0.003001309
000160 80 37 a4 3c fa e7 29 3d 98 94 4f bd 15 a4 78 bd
       0.020045996 0.041480996 -0.05067882 -0.060703356
000170 37 8f 4f 3d cc e3 77 3d 7f 8b 04 3c cd 84 55 3d
       0.05067369 0.06051998 0.008089899 0.0521286
000180 31 57 0d bc f0 72 bc 3c 77 c4 1c bc 3a 9f 63 bd
       -0.008626745 0.023004025 -0.009568325 -0.055571772
000190 29 e4 91 bc ff c0 f2 3c b7 d3 32 bd 52 e1 2a bd
       -0.01780899 0.029633043 -0.04365894 -0.04171879
0001a0 de 2d 6f bd 1f 4f 0f 3d 64 06 53 bd 52 e7 05 3d
       -0.05839335 0.034987565 -0.051519766 0.032691307
0001b0 35 e0 48 3d a4 53 a3 3d bf 30 25 ba 9b c4 06 3d
       0.049041945 0.079749376 -0.0006301514 0.03290234
0001c0 b5 1d 1b bd 4a db 85 bd 08 77 b9 3c 7b 2f cf 3b
       -0.037870128 -0.06535967 0.022639766 0.006322799
0001d0 36 0b 65 3d a4 59 d7 bc 59 4f 97 bd 29 a1 91 3d
       0.055918895 -0.026287861 -0.07388181 0.07110817
0001e0 3b 61 a7 bd 0c 7c 48 3d ec 08 9a bd 6e ff 61 3b
       -0.08172842 0.048946425 -0.07521233 0.0034484523
0001f0 a4 fa d5 3c 93 73 8f 3d 4b 00 4e bd 66 65 bb 3d
       0.026120491 0.07004466 -0.05029325 0.091501996
000200 f4 04 59 bd 11 96 ff 3c 34 0b dd 3c 30 11 ad 3c
       -0.05298324 0.031199487 0.026982881 0.02112636
000210 45 d4 33 3d 4f 86 a2 bd 10 8c 3f bd a9 ba 8f 3d
       0.043903608 -0.079357736 -0.046764433 0.070180245
000220 cc 4d 8f bd 50 74 9a 3d 4c f4 c4 3c 95 22 89 bd
       -0.069972605 0.07541716 0.024042271 -0.06696049
000230 ef 78 67 bd cc 42 94 bd fa 0c fa 3a 6a 4d 8d bd
       -0.056511816 -0.07239303 0.0019077354 -0.06899531
000240 d4 cc 80 3d b4 ec 7c bd 63 d4 ac 3c 73 13 f2 bc
       0.06289068 -0.061749175 0.021097368 -0.02955029
000250 20 a0 ec bc ef 56 a0 3d 7c 98 4c bd c3 52 3d bd
       -0.028884947 0.07829081 -0.049950108 -0.046221506
000260 cd ac 6d 3d b4 ed 8c bc e6 ca 81 3c 78 a2 24 3c
       0.058026124 -0.01720319 0.01584382 0.010048501
000270 b6 fa 82 bc 89 dc 42 bd 33 dd b9 3c 55 e0 89 bc
       -0.015988689 -0.0475736 0.022688484 -0.016830603
000280 e3 34 d8 bc b3 82 91 bd 55 e0 78 bd 03 d7 af bc
       -0.026392406 -0.07105007 -0.060760815 -0.02146483
000290 12 ce 36 3d 6e 0d cb bb 76 e8 80 3d 76 9a 0f 3c
       0.044630118 -0.0061966693 0.062943384 0.008764854
0002a0 00 55 16 bd bd 41 48 3d 7f ba 53 3c 89 3b 95 bd
       -0.036702156 0.048890818 0.012922882 -0.07286746
0002b0 76 31 ba 3b a1 7a 9c bc 23 76 31 3d 8b 02 45 bd
       0.0056821657 -0.019101443 0.043325555 -0.04809813
0002c0 a7 92 a5 bc a7 79 01 bd 47 5e 7b 3d b0 77 b2 bc
       -0.02021153 -0.031610157 0.061369207 -0.021785587
0002d0 78 84 6f bd 81 cb 6a 3d 65 e0 38 3d e4 c4 a1 3c
       -0.05847594 0.057322983 0.045135874 0.019747205
0002e0 97 8b 34 bd 06 27 cc 3c 5b 54 ff bc e1 63 69 3d
       -0.044078436 0.024920952 -0.031168154 0.056980018
0002f0 d3 12 5c 3d 9e d3 d6 bc 7c df 6d 3d 94 f7 38 bd
       0.05372889 -0.026223954 0.05807446 -0.045157984
000300 ba 00 ef 3c 40 89 43 3c e3 5f 4b 3d 7f 44 33 bd
       0.029175151 0.011934578 0.04965199 -0.043766495
000310 bb 8b ba bc f0 e5 8a bd f1 bb 88 3b f6 51 88 bc
       -0.022771707 -0.06782138 0.004172795 -0.016640645
000320 e9 42 84 bb 9a 3e 4c 3c 30 42 90 3d db 22 7d 3d
       -0.0040362966 0.012466097 0.07043874 0.06180082
000330 43 46 12 3d 0d 33 e4 bc 50 25 62 3d f0 6a 2e bd
       0.035711538 -0.027856374 0.055211365 -0.042582452
000340 b4 55 c8 3b 3f c0 34 bd 61 3a 1c 3d 77 97 cb 3b
       0.0061137322 -0.044128653 0.038141612 0.0062131244
000350 57 f3 31 bc bb 87 92 bd 9f 90 41 3d fc d2 29 3d
       -0.010861239 -0.07154795 0.047257062 0.041460976
000360 9c db db bc 7a bc 31 bc 5e a1 94 3d 1e 1c 95 bc
       -0.026838116 -0.010848159 0.07257341 -0.018201884
000370 a0 17 8a bd 8d eb 76 3d 9c ad 99 3c 33 a1 64 bd
       -0.06742787 0.060283232 0.018759541 -0.055817794
000380 8c 1e df 3c e8 30 2e 3c 3b fc 89 bd 63 56 74 3d
       0.027236246 0.010631777 -0.06737562 0.059652697
000390 bf 7b 34 bd 35 64 84 3d e9 44 02 ba 52 32 a4 3b
       -0.044063326 0.064644255 -0.0004969375 0.0050108815
0003a0 4d a9 42 3d b1 c0 83 bc cb 66 27 bd 8f 62 7d bd
       0.04752474 -0.016083093 -0.040869515 -0.06186157
0003b0 41 3a c7 3c e7 b1 bc bb 88 0b 00 3d fa 61 93 bc
       0.02431977 -0.0057585123 0.031260997 -0.017991055
0003c0 4f e0 06 bc 7b 13 d1 3b 0c a7 c7 3c 16 3b 8c 3d
       -0.00823219 0.006380496 0.024371646 0.06847207
0003d0 cf 4f 65 bc ca 71 91 bd a5 0e a6 bd 14 8a ab bc
       -0.013996079 -0.07101782 -0.08108262 -0.020939864
0003e0 aa 90 05 3d 70 16 46 3c 8f 23 97 3d c9 98 b0 3c
       0.032608666 0.01209031 0.07379829 0.021557229
0003f0 f7 0b 8c 3b f9 13 99 bc 36 df 7f 3d 34 d1 98 bc
       0.0042738873 -0.018686282 0.06246873 -0.018654443

i2h.bias f4 [128]
000000 05 56 ce bd b8 df 93 3b 08 59 06 bc fc d4 35 bd
       -0.10075001 0.0045127533 -0.008199938 -0.04439257
000010 42 58 a0 bc e9 d9 c1 3d e9 1e 46 3d 7b 4d bc 3c
       -0.019573335 0.09465391 0.048369322 0.022986164
000020 a5 cd b6 39 04 d2 99 3d 7c 4b 60 3b f2 bf 4f bd
       0.00034866962 0.075107604 0.003422468 -0.050720163
000030 d7 7a 92 bd f1 eb 81 bd 21 88 69 bd 3b 40 b0 bd
       -0.07152336 -0.063438304 -0.05701459 -0.08606001
000040 79 04 5d 3d 14 c0 1b bd 87 80 9c 39 88 c8 80 3d
       0.053959344 -0.038024977 0.000298504 0.06288248
000050 16 14 d4 bd a2 39 12 bd 26 29 c0 3b f3 e2 a3 3c
       -0.103553936 -0.035699494 0.0058642803 0.020005679
000060 f9 c5 93 bd 1b 1a a8 bd 44 b3 0a bb 09 f3 4a bd
       -0.07215495 -0.08208104 -0.002116398 -0.049548183
000070 08 9e 9e 3d 69 02 8f 3d 99 19 06 bd 8a 0c a7 3a
       0.07744986 0.069828816 -0.032739256 0.0012744826
000080 81 39 1d bd b2 dc c0 bd 08 fb 14 be 30 91 9e 3d
       -0.038384918 -0.09417094 -0.14548886 0.07742536
000090 af 66 73 bd a7 01 c7 3b 69 46 56 3d f4 64 b4 3d
       -0.0594241 0.006073195 0.052313242 0.08808318
0000a0 ce 9e 46 bd e2 cf a1 3d 22 f0 bf 3d 14 f8 b4 3d
       -0.04849129 0.079009786 0.093719736 0.0883638
0000b0 70 bc 0f 3d a8 1e d4 bd f5 88 e9 3b 46 0e 30 3d
       0.035091817 -0.1035741 0.0071269223 0.042982362
0000c0 0e d3 7b bd f5 46 d1 3d 66 5f 06 bd d0 64 0c 3d
       -0.061480574 0.10218612 -0.032805823 0.03427583
0000d0 08 fe e9 bd a4 0c 99 bd 34 a6 f6 bb cf 78 d4 3d
       -0.11425406 -0.07473114 -0.007527137 0.10374605
0000e0 e0 3c e8 bd 4f 36 5c 3e 19 2f ac 3d 7b 8e 1b 3e
       -0.11339736 0.21505092 0.08407421 0.1519107
0000f0 c9 29 c0 3d 5a 4c 9e 3d 66 3b 4e bd 39 a5 b6 bc
       0.0938297 0.07729407 -0.050349616 -0.022295581
000100 c7 e2 ea 3c e5 4b 22 bd 27 c5 63 3d f2 16 01 3c
       0.028672589 -0.03962316 0.05560794 0.007879006
000110 bd 3f ad 3d ae 7b 0b 3d f0 9e 89 bd bc f0 77 bc
       0.08459423 0.034053497 -0.06719768 -0.015133079
000120 27 e4 7a bd 34 20 e8 3c a9 89 3b bd 07 c9 32 bd
       -0.06125274 0.028335668 -0.04578558 -0.043648746
000130 f8 66 c1 bc 32 97 b3 bd b8 c3 b9 3d a6 e8 80 bc
       -0.02360867 -0.087690726 0.090705335 -0.015735935
000140 e6 7c 32 bc 59 9b 4d 3a 10 38 51 3d ee 99 89 bd
       -0.010894036 0.0007843278 0.051078856 -0.06718813
000150 31 fc 9e 3d 2d 28 94 bd d9 c3 c7 3b 71 d7 3f bd
       0.077629454 -0.072342254 0.006096345 -0.04683632
000160 76 b4 61 bc 3e de 99 bc 06 9a 35 bd 8e 4c 83 3d
       -0.013775935 -0.018782731 -0.04433634 0.06411086
000170 93 92 1f bd cd 30 df bb 04 b9 2d 3c 06 3e da bd
       -0.038958143 -0.0068112374 0.010603193 -0.10656361
000180 b4 fa 8b bd 3c e9 6a bd ea 95 f9 3c fe fe 54 bd
       -0.06834927 -0.057351336 0.030466992 -0.052000992
000190 85 63 a8 bd 61 12 b2 3d 47 7d 08 bd c3 b3 7f bd
       -0.08222107 0.08694912 -0.0333226 -0.062427294
0001a0 0b fb e9 39 be 71 10 3c c0 b1 a6 3c 0a 92 ee bc
       0.00044628265 0.008816181 0.02034843 -0.029122371
0001b0 2d d9 8e 3d e6 17 a3 bc 7b ad 8f 3c 95 8c c8 bd
       0.06975017 -0.019908857 0.017538777 -0.09792439
0001c0 07 88 62 3c 45 5a 9e 3d 9f 97 cc bd 6c 89 41 3d
       0.013826377 0.07732061 -0.09989857 0.047250196
0001d0 c6 2c aa bd cf 53 03 bc 33 12 13 bd 13 a8 6c 3d
       -0.08309321 -0.008015587 -0.035906028 0.057777476
0001e0 35 d1 c3 bd d3 75 88 bd 6b 4b 8c bd 99 c9 61 3c
       -0.095613874 -0.06663098 -0.06850322 0.013780975
0001f0 2a 02 a2 bd 2c 6a 8b 3d 17 e3 94 3d 58 44 27 bd
       -0.07910569 0.0680736 0.072698765 -0.040836662

i2o.weight f4 [20, 160]
000000 d0 18 07 3d cd 28 f6 bc 9f 9a 4c bd 44 4d 7e 3b
       0.032982647 -0.030048752 -0.049952146 0.0038803378
000010 2a 1d ea 39 85 79 e5 3b 85 45 9d 3c 4e f9 b0 ba
       0.00044653687 0.0070030116 0.019198189 -0.0013502033
000020 c6 89 59 3c ab 78 11 3d cf 1c 1e bd df 21 d5 bc
       0.013277477 0.03551547 -0.038601693 -0.026017128
000030 d1 dd b4 3c 45 5a c9 3a 0e 6c d2 3c 0b 9e 73 bc
       0.022078427 0.0015361985 0.02568629 -0.014869223
000040 91 c5 c2 bc 72 f8 42 bd b4 58 c0 bc 12 9e 9f bc
       -0.023775848 -0.047600217 -0.023479797 -0.019484553
000050 ad 15 aa bc 3e e5 8d 3c 3b e5 a5 ba 94 c5 ff bc
       -0.020762289 0.017321225 -0.0012656817 -0.031222142
000060 59 78 54 bd ab 4b 33 bb b8 91 27 3d 56 15 eb 3b
       -0.051872585 -0.0027358334 0.040910453 0.0071741743
000070 3b ef c1 3c bc 9e be bc 64 d4 0d bd c1 9e d5 bc
       0.023673644 -0.02326905 -0.03462638 -0.026076676
000080 4c fc a3 3d d9 10 1a 3d 38 12 f1 3d a8 e9 e4 3c
       0.08007106 0.037613723 0.11771053 0.027943447
000090 1b b1 d3 bb 90 64 14 be a0 e4 17 be 2b 58 d5 bc
       -0.0064603216 -0.14491487 -0.14833307 -0.026043018
0000a0 b1 82 8a 3c fe 4b a2 bd 3f 13 c5 3d 4e 52 0b 3e
       0.016908022 -0.079246506 0.096228115 0.13605615
0000b0 2e 2e c5 3d 89 70 d5 bc e5 ba 17 bc 82 a0 c5 3d
       0.09627949 -0.026054638 -0.009260868 0.09649755
0000c0 e5 48 c9 bd 41 e9 c6 bd 13 f6 b6 bd 40 e6 d6 bc
       -0.09828357 -0.097124584 -0.08933654 -0.026232839
0000d0 0a a4 ea 3d 38 64 0b 3e a0 d4 14 3d ff e6 94 3d
       0.11457069 0.13612449 0.036335588 0.072706215
0000e0 1f ee 8c 3c 97 6d a2 3d 24 eb b7 bc ce bd 15 3e
       0.017203389 0.07931059 -0.022450991 0.14623186
0000f0 73 23 e4 bd d7 72 33 3d ac 00 74 bc 61 b0 8e bd
       -0.11139574 0.04381069 -0.014892738 -0.06967235
000100 ad f6 09 3d 15 2c a6 bd ce 2c 18 3e a0 c3 ab 3c
       0.033682514 -0.08113877 0.14860842 0.020967305
000110 92 48 86 3c 4c 0d 68 3d 3a 47 d8 bc ee e5 9a bd
       0.016392026 0.056653306 -0.026401151 -0.07563387
000120 f0 ce 5f 3d 1b 78 33 bd 55 72 2d be 76 47 a8 bd
       0.05464071 -0.043815713 -0.16938145 -0.08216755
000130 b9 0f 3d 3d ec 8d 16 3e 75 87 21 bc 31 90 12 bd
       0.046157572 0.14702576 -0.009858956 -0.035782043
000140 aa c3 fb 3b bd 9e 06 3e fb 27 b4 3c 3a fd 33 bd
       0.007683237 0.13146491 0.02199172 -0.043942668
000150 1b 2d 59 3d 26 ff 28 3e 35 f6 bf 3c c6 82 9c bd
       0.05302153 0.16503581 0.02343283 -0.076421306
000160 e8 fb ef 3d f3 8e cf 3c 18 7a 43 bc 31 37 9a bd
       0.11717969 0.025336718 -0.011930965 -0.07530058
000170 fc 7c cb bd 49 56 77 3c d1 e6 cc 3d 07 11 8a 3d
       -0.09935948 0.015096256 0.10004962 0.06741529
000180 44 82 3d bc 8b b5 8a 3d ab bd bb 3c c9 9c aa bd
       -0.011566702 0.06772908 0.02291759 -0.08330686
000190 e7 8d da bd a7 18 e1 bc d5 b9 c4 3d ad 0d c7 3b
       -0.10671597 -0.027477575 0.09605757 0.0060746283
0001a0 95 9b 08 3e 23 ff eb bc 63 3f 0d 3d bd 6c d0 bd
       0.133406 -0.028808182 0.03448428 -0.1017699
0001b0 03 00 41 3d 88 72 56 3d 1c 19 84 bd f6 8d 4a 3d
       0.04711915 0.05235532 -0.06450102 0.04945179
0001c0 00 d3 ad 3d 01 02 75 3d 2e 79 69 3c a1 50 1b 3e
       0.08487511 0.059816364 0.014250083 0.15167476
0001d0 37 be 39 bd 3c 5c 1d 3e 5f d0 3c 3c 53 99 19 3d
       -0.04534742 0.15367216 0.011524289 0.037499737
0001e0 03 a9 b2 3d b6 62 3b 3d 82 4d b3 bc b8 3e a5 bc
       0.08723643 0.045748435 -0.021887545 -0.020171508
0001f0 de 73 a9 3c 80 92 a5 3d 45 2c 1d bd 89 31 b0 3d
       0.020685133 0.08084583 -0.038372297 0.08603198
000200 1c 0f 3b bd 67 bb ee 3d 1a 7d 38 bc f0 8f e9 3d
       -0.045668706 0.11656838 -0.011260295 0.11404407
000210 0c d3 fc 3d 2d 37 1b 3d 6e ac a2 3c 40 0b e3 3d
       0.123449415 0.037894417 0.019857612 0.1108613
000220 0d 13 9f bc e3 65 59 bd f9 65 58 3d 49 c4 1e 3d
       -0.019418264 -0.053075682 0.052831624 0.03876141
000230 0d d4 20 bc 22 50 a1 bd 23 33 42 bc 37 77 f4 3d
       -0.009816182 -0.07876612 -0.011853012 0.11936801
000240 ab 3e 79 bd 25 e7 0b bd 38 d4 e2 bc b2 97 a4 bd
       -0.06085078 -0.034155983 -0.027689084 -0.08036746
000250 d3 5f 35 3e 92 70 50 bd 02 09 c5 3d 26 80 0f bd
       0.17712335 -0.050888605 0.09620859 -0.03503432
000260 16 95 be 3d 1d 57 53 3d 4c 14 80 3d 0d 9a f5 bd
       0.0930578 0.05159675 0.06253871 -0.119922735
000270 e6 dc 18 3e b1 86 e7 3c 47 2a 00 bd 4c 7a cb 3d
       0.14928016 0.028262468 -0.03129032 0.09935436
000280 2c 41 14 bd a8 b1 dc bb ac f0 65 bc ec e0 e2 3a
       -0.036194965 -0.0067350455 -0.014034431 0.0017309464
000290 17 9c f2 3c 95 70 0b 3d e7 c7 16 3d c1 b8 ea 3c
       0.029615445 0.034042913 0.036811735 0.02865255
0002a0 75 0d 04 bc 88 5b 13 3d a5 25 14 39 78 77 13 3d
       -0.008059849 0.035975963 0.00014128404 0.036002606
0002b0 e8 23 f1 bc 39 98 41 3b 86 c9 9f bb fc 8f 22 ba
       -0.029436067 0.0029540195 -0.0048763184 -0.0006201265
0002c0 a7 dd 10 3d 77 b5 06 3d 3a 72 08 bd e2 74 cd bb
       0.035367634 0.032887902 -0.03331206 -0.006270037
0002d0 a2 15 d0 3c 2f 15 9f 3c 37 f9 e7 3c d0 97 53 3a
       0.02540094 0.01941928 0.028317077 0.0008071633
0002e0 c7 b8 eb bc bf 17 67 3c 23 a7 5f 3c f0 e2 b2 bc
       -0.028774632 0.014104783 0.013650688 -0.021836728
0002f0 a6 79 a5 bc f3 0a 65 3c ba 9f ed 3b 94 d3 de 3c
       -0.020199608 0.013979661 0.007251707 0.027200498
000300 e8 99 8a 3d 08 be a5 3d c6 35 2e 3e 43 57 13 3e
       0.067676365 0.08092886 0.170127 0.14388756
000310 ed b3 86 3d 74 04 aa bd 16 b8 11 be 0c 97 33 bd
       0.06577287 -0.083016306 -0.1423038 -0.04384522
000320 fe cb 1c be 00 73 1c be c4 1e 5f 3d af 43 17 3e
       -0.15312192 -0.15278244 0.0544727 0.14771913
000330 4d 91 23 3e 60 7f 73 3c 91 b8 f9 3c ef d3 2e 3e
       0.15973397 0.014861912 0.030483516 0.17073034
000340 86 11 0a be 96 25 90 bd 61 90 40 be d6 fa 09 be
       -0.13483247 -0.07038419 -0.18805076 -0.13474593
000350 82 0c 11 3e c5 09 fd 3d de 53 92 3c b8 fe c5 3d
       0.14164928 0.12355379 0.017862257 0.09667724
000360 be 86 2a 3e 29 61 3b 3e e3 d5 fd bd 42 e9 1b 3e
       0.16652963 0.18298782 -0.12394311 0.152257
000370 76 a9 e2 bd 9f 10 d8 bd a5 c5 b5 3d 39 0e be bd
       -0.11067478 -0.10550045 0.08875588 -0.092800565
000380 ce 24 c2 3d d0 a7 54 bd 04 8b f0 3d a5 e5 eb bd
       0.09479676 -0.05191785 0.11745265 -0.115184106
000390 77 4c ca 3d 90 8f 0b bd 47 cd 09 bd 6c 0c 38 be
       0.09877866 -0.03407246 -0.033643033 -0.17973489
0003a0 1b ab 4f 3d 1c 5b 14 bd 77 97 35 be 5c f0 b4 bd
       0.05070029 -0.0362197 -0.1773356 -0.088349074
0003b0 89 0f f2 3a ab 89 50 3e 0d 15 07 3e f2 68 f9 3d
       0.0018467765 0.20365016 0.13191624 0.1217822
0003c0 6e f4 a6 3d 28 41 00 3d eb c5 7f 3d 98 16 21 bd
       0.0815209 0.031312138 0.06244461 -0.039328188
0003d0 de de 42 3e 1a f0 ab 3d c6 f5 25 3d 72 df f4 bd
       0.1903033 0.08395405 0.04051759 -0.11956681
0003e0 11 69 a5 3d 36 be 3e be 19 31 06 be cd 5b 03 be
       0.080766805 -0.18627247 -0.13104667 -0.12827988
0003f0 54 4d d4 bd da 86 42 bd 3e ba 76 3d bc 7c 25 3e
       -0.10366312 -0.047491886 0.06023621 0.16160864

i2o.bias f4 [20]
000000 2f b6 e1 bd 97 3a be bd e6 68 1e be 3b 1c 3d be
       -0.11021077 -0.09288519 -0.15469703 -0.184678
000010 f5 93 00 be 6a d1 a5 bd 63 3b ea bd c5 2f cf bd
       -0.12556441 -0.08096583 -0.11437108 -0.10116533
000020 fb 78 2a be 84 6a ac bd ca d3 ad bd 66 2f 41 3d
       -0.16647713 -0.08418754 -0.08487661 0.047164343
000030 8f 7d 22 3e dd fd 0c 3e 5d ca b9 3d f9 aa 00 3e
       0.1586821 0.13768716 0.09071801 0.12565221
000040 cf 84 2a 3c 86 f3 05 3d f6 f4 57 bd d7 0a 27 be
       0.010407641 0.032702945 -0.052723847 -0.16312729
