model_param.pkl (torch, 107423 bytes, 4 tensors)

i2h.weight f4 [128, 178]
0	0x3d915221	0.07095743
1	0xbd22d47a	-0.039753415
2	0xbc26a06f	-0.010170086
3	0xbcab6e69	-0.020926671
4	0x3d7fe4b6	0.062473975
5	0xbd3e5e14	-0.04647644
6	0x3c9e1a2b	0.019299587
7	0xbce033cf	-0.027368454
8	0x3d63e43b	0.05563758
9	0xbdb53fbf	-0.08850049
10	0xbd915d2a	-0.07097848
11	0x3ceac08b	0.028656265
12	0x3d8b1131	0.067903884
13	0x3d676f0f	0.056502398
14	0xbd59c2c9	-0.053164277
15	0x3ba45bf9	0.005015847
16	0xbd02edf3	-0.031965207
17	0x3ac191e3	0.0014768209
18	0x3b2d6709	0.0026459119
19	0xbca7b25e	-0.020470794
20	0xbcafff08	-0.021483913
21	0xbce348d6	-0.027744692
22	0x3a5af2b1	0.0008352204
23	0xbb90877b	-0.004410682
24	0xbd70b916	-0.05877026
25	0xbc32c210	-0.010910526
26	0xbc1373e2	-0.008999797
27	0xbd905807	-0.0704804
28	0x3d41e856	0.047340713
29	0x3b87f9c0	0.0041496456
30	0xbd6b2b64	-0.057414427
31	0x3d94666b	0.07246097
32	0x3bbed05e	0.005823179
33	0x3d92e51c	0.071726054
34	0xbc9ce7a7	-0.01915343
35	0x3d784b2a	0.060618557
36	0xbd43c0c3	-0.047791254
37	0xbd1b4163	-0.037904155
38	0x3d375236	0.044756137
39	0x3d911d6a	0.070856884
40	0x3c329563	0.010899874
41	0x3d69bb56	0.057063423
42	0xbd698d2f	-0.05701941
43	0xbd1ef07b	-0.03880356
44	0x3b339d7f	0.0027407107
45	0x3d948a96	0.07252996
46	0xbd0e6df2	-0.03477282
47	0x3c9b39ca	0.018948454
48	0xbd3e15ad	-0.04640739
49	0xbd288e68	-0.041151434
50	0x3d3ebad8	0.046564907
51	0xbd8d0255	-0.068852104
52	0x3c66fe49	0.014098712
53	0x3d9748e0	0.07386947
54	0x3d30ca28	0.04316154
55	0xbd5fcc98	-0.054638475
56	0xbc6ec052	-0.01457222
57	0x3d93bc83	0.0721369
58	0x3d1c18ed	0.03810971
59	0x3d1bd54e	0.03804522
60	0x3ca0f2d1	0.019647034
61	0xbbf4a647	-0.007466111
62	0x3bb59d00	0.0055423975
63	0xbc060d9e	-0.0081819575
64	0xbd1ce616	-0.038305365
65	0xbcb78a8c	-0.022404931
66	0xbd8d0f88	-0.06887728
67	0x3d82a0ed	0.063783504
68	0x3d384c72	0.04499478
69	0xbb9d2942	-0.004796178
70	0x3b09a1e7	0.0021001042
71	0xbcf63695	-0.030055324
72	0x3d5804ae	0.052738838
73	0x3d287bf6	0.041133843
74	0x3c8c9071	0.017158719
75	0xbd93ca3f	-0.0721631
76	0x3d27069e	0.040777795
77	0xbcd3110c	-0.025764965
78	0xbd06307d	-0.032761086
79	0x3b924a33	0.0044644116
80	0x3d60a18c	0.054841563
81	0x3d32518a	0.043534793
82	0x3cac9687	0.02106787
83	0xbcab5924	-0.020916529
84	0x3d43f17f	0.04783773
85	0x3d69d679	0.057089303
86	0x3cae1f6b	0.021255216
87	0xbd383267	-0.044969942
88	0x3d1e97ef	0.038719114
89	0xbc5cd88b	-0.013479362
90	0x3b423fda	0.002964011
91	0xbce145da	-0.027499128
92	0x3d0d37d3	0.034477066
93	0xbd718ed0	-0.058974087
94	0xbc9a5e17	-0.018843694
95	0xbbc82bea	-0.0061087506
96	0xbcad80a8	-0.021179512
97	0x3d0aa837	0.03385183
98	0xbc029810	-0.007970825
99	0x3d555125	0.05207934
100	0xbd23336b	-0.039843958
101	0x3d1ff1e3	0.03904904
102	0xbc20f5d0	-0.009824231
103	0xbcbc4f0b	-0.02298691
104	0xbd745ede	-0.059660785
105	0xbd56c989	-0.052438293
106	0x3d54cdee	0.051954202
107	0x3d9dcc9f	0.07705044
108	0x3d8ccfd4	0.068755776
109	0xbbca5db2	-0.00617572
110	0xbd68d68a	-0.056845225
111	0xbccdcd01	-0.025122168
112	0xbd1e14b0	-0.038593948
113	0x3cf12bd4	0.029439844
114	0x3d536c65	0.051617045
115	0xbd4f068d	-0.050543357
116	0x3ac5d3be	0.0015093011
117	0x3d495c29	0.049160156
118	0xbb9bca88	-0.004754368
119	0x3d676c64	0.056499854
120	0x3ceebee3	0.029143756
121	0xbd51091b	-0.051034074
122	0xba0ffd7f	-0.0005492791
123	0xbcbc1135	-0.022957424
124	0xbcba2661	-0.022723379
125	0x3d723c57	0.059139576
126	0xbd10ec9d	-0.035381902
127	0xbd29d390	-0.041461527
128	0x3d69896d	0.057015825
129	0x3d5e9ee8	0.054350764
130	0xbd4fc485	-0.050724525
131	0xbd968342	-0.07349254
132	0xbd85926e	-0.0652207
133	0xbcb95459	-0.022623228
134	0x3d037c69	0.03210107
135	0x3d061df5	0.032743413
136	0x3d986282	0.07440664
137	0xbb920cfa	-0.0044571133
138	0x3d9677b4	0.0734705
139	0x3a90b5b1	0.0011040476
140	0xbd7f839f	-0.062381383
141	0x3cf1056b	0.029421529
142	0x3c1f3b08	0.009718664
143	0x3c5e14f9	0.013554805
144	0x3ba7e5d8	0.005123835
145	0xbd0d4ace	-0.034495167
146	0xbd062c02	-0.032756813
147	0x3d12e31a	0.035861112
148	0x3d820c65	0.0635002
149	0xbd6107f9	-0.054939244
150	0x3d4ad215	0.049516756
151	0xbd5ad3d7	-0.053424682
152	0x3d74313c	0.059617266
153	0xbc8dadc0	-0.017294765
154	0x3d3fca10	0.04682356
155	0x3d96c6fe	0.073621735
156	0x3d7c3aa5	0.061579365
157	0x3c44e7f0	0.012018189
158	0xbd3d08cb	-0.046150964
159	0x3d68633d	0.056735266
160	0xbd74eeb3	-0.059797954
161	0x3c4bfff7	0.0124511635
162	0x3ca3c64d	0.019992018
163	0x3aaa6e62	0.0013002867
164	0xbd852ca5	-0.06502656
165	0x3d613e74	0.0549912
166	0x3d8a93c1	0.06766463
167	0xbce76a41	-0.028248908
168	0x3c1a37c3	0.009412709
169	0xbc397f36	-0.011321833
170	0xbc3692bb	-0.011143382
171	0xbd1a33c0	-0.03764701
172	0xbd17600c	-0.03695683
173	0xbcbac222	-0.022797648
174	0xbd9199c9	-0.0710941
175	0x3bb99f90	0.0056647733
176	0xbb3b0356	-0.0028535924
177	0x3d143b84	0.03618957
178	0xbcee7446	-0.029108178
179	0xbb23257a	-0.0024894164
180	0x3d9b9923	0.07597568
181	0x3bebd0da	0.007196528
182	0x3cf667cc	0.030078791
183	0x3ce2ba4a	0.02767672
184	0x3d1fa46b	0.03897516
185	0xbb039e5b	-0.00200834
186	0x3c9fb37e	0.019494768
187	0xbd8174de	-0.06321119
188	0xbd5d653e	-0.05405163
189	0x3d865b63	0.065603994
190	0xbd6c2e1d	-0.057661165
191	0x3ca0a76f	0.019611089
192	0x3c533739	0.012891584
193	0xbd618cb4	-0.055065826
194	0xb8f99502	-0.00011901
195	0xbc8ee072	-0.017441008
196	0x3d930ee8	0.071805775
197	0x3cbca3b8	0.023027286
198	0xbd97f51a	-0.07419796
199	0xbcb478ef	-0.022030322
200	0xbd739e2c	-0.059477016
201	0xbceb676c	-0.028735839
202	0xbb950374	-0.004547531
203	0xbcaed325	-0.021340916
204	0x3cf7f504	0.0302682
205	0x3b2d927a	0.0026485012
206	0xbd126773	-0.035743188
207	0xbd381050	-0.04493743
208	0x3d052213	0.0325032
209	0xbd595acf	-0.053065117
210	0xbd1087ec	-0.035285875
211	0x3afb0c04	0.0019153361
212	0xbd34794f	-0.044061
213	0x3cddf7fe	0.027095791
214	0x3d255c8f	0.040371474
215	0x3d24b809	0.040214572
216	0x3c8d34e8	0.017237142
217	0x3d41d51c	0.047322378
218	0x3cea29ba	0.02858435
219	0xbd29d77f	-0.04146528
220	0x3c854691	0.016269
221	0x3c3f3933	0.011671352
222	0xb61eb300	-2.3648026e-06
223	0xbd7ccb49	-0.061717305
224	0x3878eb87	5.934716e-05
225	0x3d068063	0.032837283
226	0x3d580c5e	0.05274617
227	0xbd0844e4	-0.033268824
228	0x3ca24e9b	0.019812873
229	0xbc7fb852	-0.01560791
230	0x3da4afeb	0.08041366
231	0xbd287114	-0.041123465
232	0x3d903633	0.07041588
233	0x3d3ba708	0.04581359
234	0x3a3ef773	0.00072847976
235	0xbc1b713b	-0.0094874455
236	0xbc709bcd	-0.014685583
237	0xbd100927	-0.03516498
238	0x3d406255	0.046968777
239	0xbd52fdd5	-0.051511604
240	0x3d0a8c94	0.033825472
241	0x3aa4df89	0.0012578826
242	0x3c67b1c4	0.014141504
243	0xbd462e32	-0.0483839
244	0xbd549a90	-0.051905215
245	0xbcadd86c	-0.021221362
246	0xbc5f2bcb	-0.013621281
247	0x3d91f01c	0.07125875
248	0x3d5197ca	0.051170148
249	0xbb1941cd	-0.0023385168
250	0xbc167b1e	-0.009184627
251	0x3ca915bf	0.020640252
252	0xbd6972b9	-0.056994174
253	0xbd8c08ee	-0.06837641
254	0x3cd4dab4	0.025983192
255	0xbbc74a4c	-0.006081855

i2h.bias f4 [128]
0	0xbcaa32d2	-0.020776186
1	0xbd3083dc	-0.0430945
2	0xbd819f0a	-0.063291624
3	0x3d1ec822	0.03876508
4	0xbd954aec	-0.07289681
5	0x3d1bb4e2	0.0380143
6	0x3d45d6c7	0.04830053
7	0x3d97ed7a	0.07418342
8	0x3d8ca294	0.06866947
9	0xbd13f362	-0.03612078
10	0x3d6cc7e1	0.057807807
11	0x3da3929c	0.07986948
12	0xbbb5bda5	-0.005546289
13	0xbd9dddaf	-0.077082984
14	0x3d2a1db9	0.041532252
15	0x3c632703	0.013864282
16	0x3d5b9860	0.053612113
17	0xbc4555bb	-0.0120443655
18	0xbdbdc093	-0.09265246
19	0xbc5cd57d	-0.013478634
20	0x3d57ac4c	0.05265455
21	0xbb6076f1	-0.0034250582
22	0xbd902d12	-0.070398465
23	0x3d8344cd	0.06409607
24	0xbcc2bf09	-0.023772733
25	0xbc983c4e	-0.018583443
26	0xbda17c41	-0.07885028
27	0xbd1336a1	-0.03594077
28	0x3d5ea740	0.05435872
29	0x3ce8c760	0.028415382
30	0x3d04ebf6	0.032451592
31	0xbda691e5	-0.08133296
32	0xbc87bc4c	-0.01656928
33	0x3e12eb7c	0.14347643
34	0x3d0aa0d4	0.033844784
35	0x3d13d513	0.036091875
36	0xbd91c0fd	-0.07116888
37	0x3d54c12c	0.051942036
38	0x3c96f44f	0.018427042
39	0xbc52371a	-0.01283052
40	0xbdbc222b	-0.091862045
41	0xbcc80eb8	-0.024421081
42	0xbd859cdb	-0.065240584
43	0x3d46dc47	0.048549917
44	0xbd809b18	-0.06279582
45	0xbcc2f78b	-0.023799678
46	0x3d83e35c	0.0643985
47	0x3d8397b5	0.0642542
48	0xbd9c6083	-0.07635596
49	0xbd6304ce	-0.055424504
50	0xbb34592d	-0.0027518973
51	0x3d0504b5	0.032475192
52	0x3db408a8	0.087907135
53	0x3d3648f6	0.044503175
54	0x3db230bf	0.08700704
55	0xbe109230	-0.14118266
56	0xbd975360	-0.073889494
57	0x3d6270bc	0.055283293
58	0x3d6fbeb9	0.058531497
59	0x3d615fb2	0.055022903
60	0xbd4aa5c2	-0.049474485
61	0xbd532dca	-0.05155734
62	0xbd49f06f	-0.04930156
63	0x3d9165b4	0.070994765
64	0x3d02434c	0.03180246
65	0x3c9b3421	0.018945755
66	0x3c80293e	0.015644666
67	0x3db8310e	0.089937314
68	0xbdbbe675	-0.091748156
69	0xbc83a560	-0.016070068
70	0xbce93940	-0.028469682
71	0xbd229e73	-0.03970189
72	0xbda081ad	-0.07837234
73	0x3d133f95	0.03594931
74	0xbbf824a4	-0.0075727273
75	0x3cc510ee	0.024055924
76	0xbd1d0a2a	-0.03833977
77	0x3da9c93d	0.08290336
78	0x3d573006	0.052536033
79	0xbcd65a0e	-0.026165988
80	0xbd980f8f	-0.074248426
81	0x3cb535cb	0.022120377
82	0xbb12b0a7	-0.0022383125
83	0xbd50d008	-0.050979644
84	0xbd2850aa	-0.041092552
85	0x3c871e38	0.016493902
86	0x3d296329	0.041354332
87	0xbd600c08	-0.054698974
88	0x3d0c2c33	0.03422184
89	0xbebabce7	-0.36472246
90	0xbd841127	-0.06448584
91	0xbd868462	-0.06568219
92	0x3b87ed92	0.0041481936
93	0xbb02bb4f	-0.001994807
94	0xbc85ce88	-0.016333833
95	0x3d6ced35	0.057843406
96	0x3d82c0e8	0.0638445
97	0x3d221f85	0.03958084
98	0x3d81c8cd	0.06337128
99	0xbced6178	-0.02897714
100	0xbd9ad2c8	-0.075597346
101	0xbd426b2d	-0.047465492
102	0xbe83fc56	-0.25778455
103	0x3bf8b63b	0.007590083
104	0x3dbd001c	0.092285365
105	0xbd80f7dc	-0.062972754
106	0xbd4b3462	-0.049610503
107	0x3d116896	0.03550013
108	0x3c0ae6ea	0.008477906
109	0x3d79b5ab	0.060964268
110	0x3b96aaf0	0.004598014
111	0xbca29026	-0.019844126
112	0x3c83a7bc	0.016071193
113	0xbd0d39dd	-0.03447901
114	0xbd5d5d32	-0.054043956
115	0x3e835a33	0.25654754
116	0x3daa7cb3	0.08324566
117	0xbd8b2d00	-0.067956924
118	0x3d038d0f	0.032116946
119	0xbc8be338	-0.01707612
120	0xbd8f67ee	-0.07002245
121	0x3cb6106d	0.02222463
122	0xbdab5727	-0.08366232
123	0xbd87aa67	-0.066242985
124	0x3cbd0bcd	0.023076916
125	0x3d6b7260	0.057482123
126	0xbd9c8f27	-0.07644492
127	0x3da3a1a4	0.07989815

i2o.weight f4 [20, 178]
0	0x3c3c1afa	0.011481041
1	0x3ca6763a	0.020320047
2	0x3c57ebfe	0.0131788235
3	0xbd0b6e24	-0.034040585
4	0xbc361b8d	-0.011114967
5	0x3d0b6c7a	0.034039
6	0x3ce01f57	0.027358694
7	0x3d1edcb4	0.038784698
8	0x39e161b2	0.00042988133
9	0xbb5f8690	-0.0034107305
10	0xbd09c4ef	-0.033635076
11	0xbc9fd327	-0.019509865
12	0x3d3b8a15	0.045785982
13	0x3d215690	0.039389193
14	0xbca7df10	-0.020492107
15	0x3ca417e7	0.020030929
16	0xbcc42462	-0.02394313
17	0xbc32e9ef	-0.010920032
18	0xbc7f79a4	-0.015592966
19	0xbcff3642	-0.031153802
20	0xbc7a1605	-0.015264039
21	0x3b5ba651	0.003351588
22	0xbca8260e	-0.020525958
23	0xbc1f9793	-0.009740728
24	0xbc0673cb	-0.008206318
25	0x3c23b5d4	0.009992082
26	0xbda8ca4c	-0.0824171
27	0x3b830836	0.0039987816
28	0xbc2a0311	-0.010376708
29	0x3aa17bc8	0.0012320215
30	0x3bb93c35	0.005652929
31	0xbcf5fbcd	-0.030027295
32	0xbc05663b	-0.008142049
33	0xbcd2ef75	-0.025748948
34	0xbd182ce4	-0.037152186
35	0x3ce8c9e5	0.028416583
36	0x3c2f7b2d	0.01071052
37	0x3d24948e	0.040180735
38	0xbc653fb6	-0.013992241
39	0x3cc8c5e0	0.024508417
40	0xbc89705e	-0.016777214
41	0xbd73ec0f	-0.059551295
42	0x3c3d22ab	0.01154391
43	0xbc4e4f2f	-0.012592121
44	0xbcb85e1e	-0.022505816
45	0x3d2d3cfe	0.042294495
46	0x3c403899	0.011732244
47	0x3d9a5551	0.07535804
48	0x3b2085fe	0.0024493928
49	0x3cb8873f	0.022525428
50	0xbc832cff	-0.016012667
51	0x3e1f4f90	0.15557694
52	0x3d28ec04	0.041240707
53	0xbddeed98	-0.10885161
54	0x3d5087cf	0.050910767
55	0xbe1c94f7	-0.152912
56	0xbd172766	-0.036902808
57	0xbdff76e4	-0.124738485
58	0xbe2dd819	-0.16976966
59	0xbd10accc	-0.035321042
60	0xbe233eee	-0.15941975
61	0xbdec99cc	-0.11552772
62	0xbe15447b	-0.14576904
63	0x3dbf16d0	0.09330523
64	0x3d01379a	0.031547166
65	0xbe181ec5	-0.14855488
66	0xbd8f1c65	-0.06987838
67	0xbd321189	-0.043473754
68	0x3d9506a7	0.072766595
69	0x3dc22369	0.0947941
70	0xbdaedc7b	-0.08538147
71	0xbd9db785	-0.07701019
72	0x3d9628c8	0.07331997
73	0xbe4a2d05	-0.19743736
74	0x3cbd74a2	0.023126904
75	0xbcadb8b6	-0.021206241
76	0x3e25d3e3	0.1619411
77	0x3dd8df9b	0.10589524
78	0x3c2379ee	0.009977801
79	0xbd3ee723	-0.046607148
80	0xbd98b4c9	-0.07456357
81	0x3e3751a6	0.1790224
82	0xbd9f4609	-0.0777703
83	0xbe1e5355	-0.15461476
84	0xbdbd5784	-0.09245208
85	0xbd563408	-0.052295715
86	0x39d5e0fc	0.00040794152
87	0xbdeb1c65	-0.11480025
88	0xbc200422	-0.00976661
89	0x3d06c2a5	0.03290047
90	0x3d23394d	0.03984957
91	0x3d8656d4	0.0655953
92	0x3d38abc2	0.045085676
93	0xbe293cec	-0.16527146
94	0x3ddc9661	0.1077087
95	0xb90d607f	-0.00013482755
96	0xbda6135f	-0.081091635
97	0xbd872169	-0.06598169
98	0x3de33072	0.110932246
99	0xbd6827b1	-0.056678478
100	0x3da249df	0.07924246
101	0xbd893292	-0.06699099
102	0xbe2853b9	-0.16438188
103	0xbdbb3391	-0.09140695
104	0xbe180271	-0.14844681
105	0x3e3432b7	0.17597471
106	0xbdbee49f	-0.0932095
107	0xbd808f21	-0.062773
108	0xbdc441d8	-0.09582871
109	0xbe13f49e	-0.14448783
110	0x3db556ea	0.08854468
111	0x3a34efc4	0.0006902183
112	0x3d1302ba	0.035891272
113	0xbe380cc9	-0.17973627
114	0xbcd41a0e	-0.02589133
115	0xbe0424b0	-0.1290462
116	0xbdc132f5	-0.094335474
117	0xbe27e943	-0.16397576
118	0x3d9e2c3c	0.07723281
119	0xbd750154	-0.05981572
120	0x3da588c8	0.080827296
121	0xbc312272	-0.010811435
122	0x3db72eb5	0.089444555
123	0xbde02f6b	-0.10946544
124	0x3d37a543	0.04483534
125	0xbdc3e388	-0.095648825
126	0x3dcb061e	0.09913276
127	0xbe57569a	-0.2102913
128	0xbde6bffb	-0.11267086
129	0x3db88e84	0.09011558
130	0x3e6051d1	0.2190621
131	0x3c3c3f4b	0.0114897
132	0xbcc77fe9	-0.024352985
133	0x3e32ccff	0.17461012
134	0x3e00d1c0	0.12580013
135	0xbdf805d6	-0.12110488
136	0x3d1fa264	0.038973227
137	0x3e138803	0.14407353
138	0xbcd1184a	-0.025524277
139	0x3e67e695	0.22646554
140	0x3d7ea144	0.062165514
141	0x3d874cac	0.06606421
142	0xbe02d5b4	-0.12776834
143	0xbde5e2b2	-0.11224879
144	0x3de0c5b0	0.10975206
145	0xbe1d838e	-0.15382215
146	0xbe020eee	-0.12701008
147	0xbdaa701a	-0.08322163
148	0xbe3fb7ab	-0.18722408
149	0x3ddda926	0.10823278
150	0x3dc03c70	0.093865275
151	0x3dd4994c	0.103808016
152	0x3e4901bd	0.1962957
153	0x3d3f3841	0.046684507
154	0xbe5fbf3d	-0.21850295
155	0xbb850668	-0.0040596016
156	0x3d20c435	0.039249618
157	0x3d8f6a6b	0.070027195
158	0xbd9dab50	-0.07698691
159	0xbcede452	-0.029039536
160	0x3d205b6f	0.039149698
161	0x3dad9f91	0.084777005
162	0xbade6771	-0.0016968084
163	0xbd7ed7c9	-0.062217508
164	0xbcbb2599	-0.022845076
165	0x3e09d267	0.13459168
166	0xbe056431	-0.13026501
167	0x3ded81ee	0.11597048
168	0xbdf33148	-0.11874634
169	0xbc81bceb	-0.015837153
170	0x3db2ac45	0.08724264
171	0xbe0eadc7	-0.13933478
172	0x3d839412	0.064247265
173	0x3dc190be	0.094514355
174	0x3d33b389	0.04387239
175	0xbe4d1653	-0.20028047
176	0x3b85aa46	0.004079136
177	0xbe2f4b9e	-0.1711869
178	0x3cd514a1	0.026010813
179	0x3c41bb28	0.011824407
180	0x3c9a008f	0.018799094
181	0xbc99b313	-0.018762147
182	0x3bd96b7b	0.006635127
183	0x3c0bec02	0.008540155
184	0xbc811325	-0.0157562
185	0x3b698a31	0.0035635347
186	0xbc948bda	-0.018133093
187	0xbce09e34	-0.027419187
188	0x3bb0801f	0.005386367
189	0xbcbfb05e	-0.023399528
190	0x3c7ab1c5	0.015301173
191	0x3c65b83d	0.014020977
192	0x3a39a737	0.0007082107
193	0x3d14bb7a	0.036311604
194	0xbd138b5f	-0.036021587
195	0x3c98862b	0.018618664
196	0x3c03e90a	0.008051166
197	0xbcae3b71	-0.021268578
198	0xbc4f8efc	-0.0126683675
199	0x3c2fda1a	0.010733152
200	0x3be5fdcf	0.0070187817
201	0xbbc8883d	-0.0061197565
202	0xbca80a58	-0.020512745
203	0xbb8dce37	-0.0043275612
204	0xbcdf7996	-0.027279656
205	0x3cca8c52	0.024725113
206	0x3c15ea07	0.009150035
207	0xbca89c90	-0.020582467
208	0x3c9188f8	0.017765507
209	0xbc5cfeaa	-0.013488451
210	0xbb8febe4	-0.004392134
211	0xbba5a789	-0.005055372
212	0xbb6f2f3c	-0.003649666
213	0xbbb33a0d	-0.0054695667
214	0xbc558139	-0.013031297
215	0xbc2636b3	-0.010144877
216	0xbc798a46	-0.015230721
217	0x3c00b837	0.00785642
218	0xbc69ae7a	-0.01426279
219	0xbcdcb0ca	-0.026939768
220	0xbac627bb	-0.0015118042
221	0x3c43d374	0.01195227
222	0xbb63163e	-0.0034650709
223	0xbc9a5b39	-0.018842326
224	0x3c810a48	0.015751973
225	0x3caca1f0	0.021073312
226	0x3cacf705	0.021113882
227	0xbc61c9f1	-0.013781057
228	0xbd4d7909	-0.050164256
229	0x3e82cde5	0.2554771
230	0x3e5f6f23	0.21819739
231	0xbe30cf66	-0.17266616
232	0x3e506eb5	0.20354731
233	0xbe036139	-0.12830056
234	0x3d34af25	0.044112343
235	0xbe3c5f29	-0.18395676
236	0xbe47fcd0	-0.19530034
237	0xbdb39650	-0.08768904
238	0xbe2e8fea	-0.17047086
239	0xbe128f27	-0.14312421
240	0xbd3199e4	-0.043359652
241	0x3e70bc8c	0.23509425
242	0x3d84dc56	0.06487338
243	0xbe3d3342	-0.18476585
244	0xbe4c67ee	-0.19961521
245	0xbbf3c1e6	-0.007438886
246	0x3e139c5a	0.14415112
247	0x3e6dbd86	0.23216829
248	0xbdbffd4a	-0.09374483
249	0xbe5176f1	-0.20455529
250	0x3dfcbce4	0.123407155
251	0xbe30d233	-0.17267685
252	0xbd35a4d0	-0.04434663
253	0xbd263566	-0.04057827
254	0x3dda34d5	0.10654608
255	0x3d84b46f	0.064797275

i2o.bias f4 [20]
0	0xbe80abb2	-0.25130993
1	0xbe09c99c	-0.13455814
2	0xbe42c623	-0.19020896
3	0xbe5940d0	-0.2121613
4	0xbe857e60	-0.2607298
5	0xbe851cbe	-0.2599849
6	0xbe57d270	-0.2107637
7	0xbe19f5fc	-0.15035242
8	0xbe737b33	-0.23777466
9	0xbe1b0b92	-0.15141132
10	0xbe331cfd	-0.17491527
11	0xbd0341f0	-0.032045305
12	0x3e3be72a	0.18349901
13	0x3e4ca434	0.19984514
14	0x3e7daff6	0.24774155
15	0x3dee0e43	0.11623814
16	0x3d51baee	0.05120366
17	0xbb5ececf	-0.003399778
18	0x3c77ea49	0.0151315415
19	0xbe8d523e	-0.27601808
